…
    "\t# with `Normalization.adapt`.\n",
    "norm_layer.adapt(data=train_spectrogram_ds.map(map_func=lambda spec, label: spec))"
   ]
  },
  {
   "cell_type": "code",
   "execution_count": 77,
   "id": "9f4039c0",
   "metadata": {},
   "outputs": [
    {
     "name": "stdout",
     "output_type": "stream",
     "text": [
      "Model: \"sequential_16\"\n",
      "_________________________________________________________________\n",
      " Layer (type)                Output Shape              Param #   \n",
      "=================================================================\n",
      " resizing_16 (Resizing)      (None, 32, 32, 1)         0         \n",
      "                                                                 \n",
      " normalization (Normalizatio  (None, 32, 32, 1)        3         \n",
      " n)                                                              \n",
      "                                                                 \n",
      " conv2d_47 (Conv2D)          (None, 30, 30, 256)       2560      \n",
      "                                                                 \n",
      " conv2d_48 (Conv2D)          (None, 28, 28, 128)       295040    \n",
      "                                                                 \n",
      " conv2d_49 (Conv2D)          (None, 26, 26, 64)        73792     \n",
      "                                                                 \n",
      " max_pooling2d_16 (MaxPoolin  (None, 13, 13, 64)       0         \n",
      " g2D)                                                            \n",
      "                                                                 \n",
      " dropout_32 (Dropout)        (None, 13, 13, 64)        0         \n",
      "                                                                 \n",
      " flatten_16 (Flatten)        (None, 10816)             0         \n",
      "                                                                 \n",
      " dense_30 (Dense)            (None, 1024)              11076608  \n",
      "                                                                 \n",
      " dropout_33 (Dropout)        (None, 1024)              0         \n",
      "                                                                 \n",
      " dense_31 (Dense)            (None, 83)                85075     \n",
      "                                                                 \n",
      "=================================================================\n",
      "Total params: 11,533,078\n",
      "Trainable params: 11,533,075\n",
      "Non-trainable params: 3\n",
      "_________________________________________________________________\n"
     ]
    }
   ],
   "source": [
    "# construção do modelo\n",
…
